Homework4_ReinforcementLearning/AI_HW4/Tables/DQN.pt (torch, 9559 bytes, 6 tensors)

fc1.weight f4 [32, 4]
000000 72 9c f9 be 0f c0 43 3e e7 96 75 be d7 b2 36 3e
       -0.4875217 0.19116233 -0.23983346 0.1784166
000010 38 82 e2 bd d4 5a 78 3e e4 5c 4c be d4 2d 5c 3e
       -0.110599935 0.24253398 -0.1995731 0.21501857
000020 c9 19 84 be 7a 6d 1a bf 79 cd 92 be c3 b3 9e be
       -0.25800923 -0.603233 -0.28672388 -0.30996522
000030 16 76 a2 3e 4c cd 9a 3e ca b2 c2 3e df b9 25 3e
       0.31730717 0.30234754 0.3802703 0.16184185
000040 3a 56 8e bf 75 89 b9 be a9 61 ee bd f4 93 54 be
       -1.1120064 -0.36237684 -0.11639721 -0.20759565
000050 d8 fd c1 3e 68 8f 6b 3d ab e7 20 3f 6d 47 3b 3e
       0.3788898 0.05750981 0.628535 0.18288966
000060 fd 5c 13 3e c6 0c d3 be bd cf 91 bf 07 3c 0b bf
       0.14390941 -0.41220683 -1.1391522 -0.5438847
000070 19 fc 7a 3e 03 4a 8f bd 7c 61 2b bf d8 47 cd bd
       0.2451023 -0.069965385 -0.66945624 -0.10023469
000080 97 9f a5 3e 9b f4 0b 3f 89 12 02 3f 23 0a ee 3d
       0.3234832 0.54670113 0.5080953 0.11623027
000090 8c 10 c9 3d a4 06 15 ba ed 6e c6 3f 5f 7a 95 3d
       0.09817609 -0.00056848885 1.5502602 0.07298731
0000a0 6d 1c 66 3e a7 47 dd 3e 17 94 13 be d9 e0 ea 3e
       0.22471781 0.4321873 -0.1441196 0.4587467
0000b0 2e f2 93 3f 78 2f 14 3f 7b f8 9a 3d 74 02 a0 3e
       1.1558282 0.5788493 0.07566925 0.31251872
0000c0 67 62 8c be 46 99 f8 bd 27 84 2e 3e 21 ac 62 be
       -0.27418825 -0.121386096 0.170426 -0.22135974
0000d0 26 bf a3 3d ef 06 e9 bd cf b7 b6 3e a0 4a 85 bd
       0.07995443 -0.113782756 0.3568711 -0.06508374
0000e0 6c ed 93 3e 6a e8 0e be be d6 7b be 88 b7 85 3d
       0.28892076 -0.13955846 -0.24593636 0.065291464
0000f0 72 69 50 be 6f 18 35 be 15 2a 4a 3f db 6c 27 3f
       -0.20352724 -0.17685102 0.7897046 0.65400475
000100 38 ac 82 bd 4a 51 94 be 7b be 14 bf 69 5a 42 be
       -0.06380504 -0.2896827 -0.5810315 -0.18979801
000110 7d 10 f1 3e 0b ce fa 3e 7d cc a3 3f ec 4a d5 3e
       0.47082892 0.48985323 1.279678 0.41658723
000120 d9 78 77 bc 40 74 0d 3f 37 61 86 3d 65 e6 88 3e
       -0.015104496 0.5525551 0.06561511 0.26738277
000130 95 05 13 be d7 95 38 3f 5b 71 e8 3e 25 69 e7 3e
       -0.14357598 0.7210364 0.45398983 0.45197406
000140 1a 61 25 3e 9e 88 ed 3e 94 0a 2a bf 96 c9 ad be
       0.16150323 0.46393293 -0.6642239 -0.3394286
000150 43 4d 09 3f d9 7c 1b 3e fb 8b 56 3f 33 fd e5 3e
       0.5363352 0.15184344 0.83807343 0.44919738
000160 4b 25 02 bf 1e 42 15 3f a7 d0 16 3f 0c c1 ef 3e
       -0.50838155 0.5830401 0.5891213 0.4682697
000170 76 07 f3 3d f0 3c 39 3f 0a 91 46 3f 82 f5 a6 3e
       0.118666574 0.7235861 0.7756506 0.32609183
000180 e1 7a c4 3e 9d 84 37 3f 85 97 dc 3d df 5c 05 3f
       0.38375 0.71686727 0.107710876 0.52094835
000190 d9 a4 90 3f aa 1c de 3e b6 6d 10 3e 24 4b 82 be
       1.1300308 0.43381244 0.14104351 -0.25447953
0001a0 a2 85 02 3f 25 70 23 3f 47 93 86 3f b0 08 00 3f
       0.5098516 0.63842994 1.0513695 0.50013256
0001b0 0f 4f 1b be 06 bd f3 bc d5 b2 61 be f2 9f 2a 3c
       -0.15166877 -0.02975322 -0.22040875 0.0104141105
0001c0 d8 62 7d be 5f 22 11 3e c0 bd f6 3e 70 8a f2 3d
       -0.24744737 0.14173268 0.48191643 0.11842811
0001d0 34 29 7e 3e 02 fb 0f 3f 7f 3c 1e be d7 f2 68 3e
       0.24820405 0.5624238 -0.15452765 0.22748886
0001e0 a6 15 94 be 05 3a 4a 3f 3d 5c 84 3f 4f 79 88 3e
       -0.28922766 0.7899478 1.0340649 0.2665505
0001f0 1e 64 79 3f 68 5e 95 be 04 58 11 bf 9a b4 80 be
       0.9741839 -0.2917359 -0.56774926 -0.25137788

fc1.bias f4 [32]
000000 bb 04 03 3f 28 af c2 be 5f 75 6d be 2e 4b 44 be
       0.51179093 -0.3802426 -0.23189305 -0.19169304
000010 d4 da 1d be 3e 57 55 3f 3b 5e cf 3e 77 c6 23 3f
       -0.15415508 0.83336246 0.4050158 0.6397471
000020 33 75 49 3f 97 af 26 be a4 25 51 3f a8 69 84 3d
       0.78694457 -0.1627792 0.8169806 0.06465465
000030 7b 9e 5d 3f 27 7d 69 3f 3b 9a 2c 3f ac 98 a3 3d
       0.86569947 0.9120659 0.67422837 0.07988104
000040 3d 5f 35 3f 69 c1 7c bc 78 60 2d 3f 5a ab 08 3f
       0.7084845 -0.015426972 0.67725325 0.5338646
000050 08 23 ce bd cd dc 1c 3f f9 39 dd 3d f3 fe 61 3f
       -0.100652754 0.61274415 0.10802073 0.88279647
000060 8e 42 48 3f 61 da ac bd 7b 4b a6 bd 07 dd 4a 3f
       0.78226554 -0.0844009 -0.081198655 0.7924351
000070 2c f6 16 3f 36 63 65 bd cc 3e ed 3e 33 27 d6 be
       0.5896938 -0.056002818 0.46336973 -0.41826782

fc2.weight f4 [50, 32]
000000 e1 ad 90 be c0 cf 4a bc a3 db ba 3e 99 1c eb bd
       -0.2825766 -0.012378633 0.36495695 -0.11480064
000010 97 66 fc 3e 02 7f 2e be 19 5c c1 3e 95 aa 94 3e
       0.4929702 -0.17040637 0.37765577 0.29036394
000020 db 9a 96 bd b6 e8 f4 be 0f 19 7f be d6 66 8b be
       -0.07353755 -0.47833794 -0.24911903 -0.27226895
000030 2b 23 b1 3e 2c fe dc 3d 9b 33 e0 3d b4 83 05 bc
       0.34597144 0.10790667 0.10947343 -0.008149076
000040 32 52 b9 3e d4 56 c3 3c 03 40 29 be 81 b2 38 bf
       0.36195523 0.023845114 -0.16528325 -0.72147375
000050 73 f3 56 3e 8d b4 9e be 22 07 00 bf e6 1b 08 be
       0.20991306 -0.30997124 -0.50010884 -0.13291892
000060 52 a9 ee be 3b ca d8 be b1 a9 30 3b 07 7c c4 3e
       -0.46613556 -0.4234179 0.0026956613 0.38375875
000070 5b f8 7b bb 1d 3e d7 be 5c 9f fe be 81 89 64 3e
       -0.0038447592 -0.42039576 -0.49730957 0.22318079
000080 17 85 6f 3f e0 3f 88 bd ba 2d b5 be f0 29 b3 be
       0.93562454 -0.06652808 -0.3538645 -0.34992933
000090 57 16 55 3e 84 9d b7 3e b8 dc 60 bf d7 dd 23 bf
       0.20809303 0.35862362 -0.8783679 -0.64010376
0000a0 bb 9f 66 3e a1 7e ec 3e fb 40 bf 3d bb 8a 4b 3e
       0.2252187 0.4619036 0.09338566 0.1987714
0000b0 b7 16 6e 3c 95 eb 9c 3c 9d cf 0c 3e 90 10 bf be
       0.014531783 0.019155303 0.13751073 -0.37317324
0000c0 7e fc c1 bf 8d 2a 3c 3f 1d 98 58 3e 28 5f 70 3e
       -1.515518 0.7350243 0.21151777 0.23473799
0000d0 ea bf da be df 71 07 3e ec 39 83 3f 90 58 72 3e
       -0.42724544 0.13227032 1.0252051 0.23666596
0000e0 4c d7 d1 3e 9c e3 97 3d 91 f1 17 3f 65 e1 3d be
       0.4098457 0.0741646 0.59352976 -0.18543012
0000f0 21 bd a6 3d 99 49 26 3e a3 3e c6 3e 2d eb b6 3b
       0.08141542 0.16239013 0.38719663 0.0055822344
000100 37 7a c9 3c 5e 8c fa 3d ac 80 51 3e 00 96 49 3a
       0.02459441 0.12233804 0.2045924 0.0007689893
000110 41 48 a6 3e 0c f8 03 3e 65 b2 be 3e 9a 2e c1 3d
       0.32477 0.12887591 0.3724548 0.09432717
000120 83 df 52 be 4e 03 d3 be 6e 90 0e be 36 b9 c7 be
       -0.20593075 -0.4121346 -0.13922283 -0.39008492
000130 e1 75 c7 3d a0 8c 6f 3e 0d ad 8f bd 77 cb 05 3e
       0.097392805 0.23393488 -0.07015429 0.13065897
000140 b8 cd ad 3e a7 5c 60 be da 47 f1 bd ff 53 62 be
       0.33946013 -0.21910344 -0.11781283 -0.22102354
000150 b7 43 45 3e b6 d2 0d bf 9e 84 5c be 34 d7 94 be
       0.19264112 -0.55399644 -0.21534964 -0.29070437
000160 41 f9 39 be e9 2d d3 be 0c 42 02 be 91 cd 8d 3e
       -0.18161489 -0.41245964 -0.12720507 0.27695897
000170 9b 96 46 bd 4b 33 1a bf 23 56 83 be 62 a5 68 be
       -0.048483472 -0.60234517 -0.25651655 -0.22719339
000180 27 a7 b0 be fe a5 ab 3d 0b 4e 9f be b2 b0 65 3e
       -0.34502527 0.0838127 -0.3111423 0.22430685
000190 38 2b f5 be 40 2f c6 3e 80 ab 38 bf ac 67 57 3e
       -0.47884536 0.38707924 -0.7213669 0.21035641
0001a0 5c 6b a6 3e 56 b8 f7 be 14 67 b0 3e 49 04 04 bf
       0.32503784 -0.48382825 0.34453642 -0.5156904
0001b0 b6 a8 95 3e 72 d2 9d 3e 6c 07 12 3f 61 d6 92 be
       0.2923028 0.3082462 0.57042575 -0.28679183
0001c0 09 dc 89 bd fc b4 38 bf ae 93 3c 3e 7a 9b a7 3e
       -0.067314215 -0.7215116 0.1841571 0.32735807
0001d0 7c d2 98 3d 84 b4 df bc fd 13 8f bf 81 40 ba 3e
       0.07462022 -0.027307756 -1.1177975 0.36377338
0001e0 84 9a aa 3e 0a cf de 3d 09 e2 3d bf 29 94 a3 3e
       0.3332101 0.10879333 -0.7417303 0.31948975
0001f0 4d d6 f0 3e ec 0d 67 3e ed 2f fa 3e a0 ef d8 be
       0.470385 0.22563905 0.4886469 -0.4237032
000200 f2 73 00 3d 80 5d 67 3b 3b 3a 97 3e 50 cd 6d 3c
       0.031360574 0.0035303533 0.29536614 0.014514282
000210 73 98 dd 3e 40 c7 8f 3d 0e 67 9d 3e c9 06 19 3e
       0.43280372 0.07020426 0.30742687 0.14943995
000220 6d 83 aa bd c7 ff 86 be 98 cf ee 3b b5 7f b5 be
       -0.08325849 -0.26367018 0.0072879307 -0.35448995
000230 14 a8 a8 3e b7 c7 a9 3e ed a4 9a 3e 1c 86 07 3e
       0.32940733 0.33160183 0.30203953 0.13234752
000240 df 26 ec 3e 53 2b 7f be b9 d8 32 bd 43 d4 7d bf
       0.46123406 -0.2491887 -0.043663714 -0.9915201
000250 31 79 43 bc 77 59 77 bf 59 1a 1d bf 0b bf de be
       -0.01193075 -0.9662089 -0.6136833 -0.4350513
000260 af bd 11 bf 34 fa e3 be ba a1 a2 3d ea 93 9b 3e
       -0.5693006 -0.44526827 0.07941003 0.30386287
000270 bb df 2e 3e 54 5c 0c bf 79 da 3e bf 3d d0 57 bc
       0.17077534 -0.5482838 -0.7455211 -0.0131722065
000280 18 25 03 3f 0f 53 32 3e e6 b6 eb bb 32 c1 2e bf
       0.51228476 0.17414497 -0.007193434 -0.6826354
000290 af 62 bb 3e 3d 18 59 3e 17 bd 33 3f bd f4 01 3f
       0.36598727 0.21200652 0.70210403 0.50764066
0002a0 1a a4 77 bd ff c8 14 c0 a3 13 9b 3e 81 3b e1 be
       -0.060459234 -2.3247678 0.3028842 -0.4399071
0002b0 e2 29 2c 3f ef 76 fb 3e 20 95 1d 3f 87 80 31 bd
       0.6725141 0.49114177 0.6155567 -0.043335464
0002c0 f3 ac 2e 3f fd 57 c8 be 3e a6 a3 3e a9 2a a6 be
       0.6823265 -0.3912963 0.3196277 -0.32454422
0002d0 a1 16 4e be db e5 90 bf 12 08 e6 bf 07 e6 5f 3d
       -0.2012582 -1.1320146 -1.7971213 0.05466273
0002e0 f5 a6 5e be a1 8c f9 be 64 14 5b bf a8 1b 25 3f
       -0.21743377 -0.48740104 -0.8557799 0.64495325
0002f0 64 f0 e8 3e a5 34 2d bf fd 5e 0e bf 21 97 12 bf
       0.45495903 -0.67658454 -0.5561369 -0.57261854
000300 71 24 9e 3d fb bc 29 3e 7b 7f b0 be ee 4b 46 be
       0.077217944 0.16575997 -0.3447226 -0.19364902
000310 32 8d fb be 9a 52 05 be ec 65 27 3b 7f 0f a5 3e
       -0.4913116 -0.13019791 0.0025542928 0.32238385
000320 8c ec 5e 3e 6a 56 19 bf 57 8f 85 3e 87 99 cd 3e
       0.21769923 -0.5989748 0.26085922 0.40156195
000330 9e 7c 2d 3d 00 6d 7d 3d 22 20 4d 3d d4 86 7c bd
       0.042355172 0.06187153 0.050079472 -0.06165202
000340 fc b2 3a 3e 31 6d 9b 3e e3 03 99 3e 2b 48 7c bd
       0.1823234 0.30356744 0.29885778 -0.061592262
000350 02 4b 66 3d b7 e5 1e bf 05 9f 3b 3f 68 36 93 3d
       0.056223877 -0.6206927 0.7328952 0.071881115
000360 f3 38 3d 3d 00 90 ce 3b 65 46 e4 3e 12 49 9a 3c
       0.04619689 0.006303787 0.44584957 0.01883367
000370 a0 eb 4a be 09 72 8d be 13 52 bb 3e 1f f6 0f 3e
       -0.19816446 -0.27626064 0.36586055 0.14058731
000380 5c c3 eb 3e bc 38 dd bd c7 66 8d be 46 c9 59 be
       0.46047485 -0.10801837 -0.27617475 -0.21268186
000390 b7 7b 10 bc cb 8a 82 3b ef 2c 07 3f 83 74 8b be
       -0.008818558 0.0039838306 0.5280294 -0.2723733
0003a0 e1 32 f7 3c 32 03 15 3f 91 ce c9 3d 87 bd 87 3e
       0.030175628 0.58208 0.098538525 0.26511785
0003b0 d3 63 85 be 10 60 cb bd 4e c7 b1 bd 52 46 61 be
       -0.26052722 -0.09930432 -0.086805925 -0.21999481
0003c0 14 e4 8d 3d 34 be 15 3f 60 4c 2d be 58 e8 8b bd
       0.06928268 0.5849335 -0.16923666 -0.068314254
0003d0 12 0f 95 bd 68 1d a3 3e 8c 42 8a 3f 38 15 4f 3e
       -0.07278265 0.31858373 1.0801558 0.20222938
0003e0 d9 56 4d 3e 65 b3 46 3d ee d8 0e 3f 56 54 1b bc
       0.20052661 0.048510928 0.5579976 -0.0094805565
0003f0 5a 40 e5 bd 70 8b 14 3d 3d 73 87 be 5f ad 1a 3f
       -0.11193915 0.03626579 -0.26455107 0.60420793

fc2.bias f4 [50]
000000 a0 23 ce 3d c0 a6 ae 3c b3 b7 19 bd b3 25 85 3e
       0.10065389 0.021319747 -0.037528705 0.26005325
000010 d0 23 ce 3b 37 e3 da 3e 12 39 cd 3d 7d e5 6a 3c
       0.0062908903 0.42751476 0.10020651 0.014336941
000020 5f 1f 75 3e bd d9 70 bd b9 70 ed 3e 30 25 bf 3e
       0.23937748 -0.0588014 0.46375063 0.3733306
000030 95 e1 f0 3e e0 3f 70 be 5e 41 6f 3e fa 41 f3 3e
       0.47047105 -0.23461866 0.2336478 0.47511274
000040 4e c4 aa 3e 00 74 9b be a4 1a a8 3d d9 3d 26 3e
       0.33352894 -0.30361938 0.08208206 0.1623453
000050 8b bc 75 3e d1 96 d2 3e c2 18 95 3e 37 01 06 3f
       0.23997705 0.4113069 0.2912045 0.52345604
000060 34 1b f0 3e a8 23 2a be 54 af 4d bd 36 74 4a 3e
       0.46895754 -0.16615164 -0.050216034 0.19770893
000070 67 9f d9 3d 20 2a 72 3e 61 e9 2d 3e d1 fe 9b bd
       0.10626107 0.23648882 0.16983558 -0.07616962
000080 59 80 9a 3e 2c 9e 78 be ae 05 0b 3f 38 f7 d2 be
       0.30176046 -0.24279088 0.5430554 -0.41204238
000090 d5 6a 5a 3e 59 2f f4 bc 27 78 e2 3e 1b 55 b9 3e
       0.21329816 -0.029807733 0.44232294 0.36197743
0000a0 93 0a d1 3e f6 b0 06 bd ab d9 06 3e 30 32 a7 bd
       0.4082838 -0.032883607 0.13168971 -0.081638694
0000b0 84 2a 12 3e 29 c5 82 3d b5 34 82 3d db bc 26 3e
       0.14274031 0.063852616 0.06357709 0.1628298
0000c0 d7 9b 04 3f 01 e5 30 3e
       0.5180029 0.17274858

fc3.weight f4 [2, 50]
000000 4b 08 52 bf 94 07 fe be 16 f1 e9 be 20 89 e8 3e
       -0.82043904 -0.49615157 -0.45691746 0.45417118
000010 a8 4f 58 bf e5 da 8a bf d7 67 8a 3e 9b f2 01 bf
       -0.84496546 -1.0848051 0.2703235 -0.5076081
000020 d2 69 06 3f 8f af 05 bf 87 f2 26 3f b3 52 cb 3e
       0.5250522 -0.52221006 0.6521382 0.39711532
000030 26 ee c2 3e 2a a9 04 be 61 b4 4c bf 57 7e 14 3f
       0.38072318 -0.12955156 -0.79962736 0.5800528
000040 8b d0 cf 3e 33 10 54 bf e8 aa e5 3d 74 09 90 3d
       0.40588793 -0.8283722 0.112142384 0.07033053
000050 43 9b fa be 38 b7 c8 3e f7 e4 15 3f d2 b8 0f 3f
       -0.4894658 0.39202285 0.585525 0.5614139
000060 89 aa 1c 3f c0 22 38 3c 23 ce d5 3d 68 85 fa be
       0.61197716 0.011238754 0.10439708 -0.48929906
000070 85 0e 95 bd 0a 13 0c 3f d2 ee a6 bf 27 11 01 be
       -0.0727816 0.5471655 -1.3041632 -0.126042
000080 fd c5 19 3f d3 6c 16 bf 10 a5 ef 3e 02 d2 64 bf
       0.6006773 -0.587598 0.4680562 -0.89382946
000090 2a 42 dc 3e dd b0 2f 3d 67 18 04 3f f3 b5 0c 3f
       0.4301923 0.04289328 0.51599735 0.5496513
0000a0 c7 1e f3 3e 94 d4 76 3b 04 f2 69 bc 96 00 77 bd
       0.4748442 0.0037663328 -0.014278892 -0.060303293
0000b0 2c f5 12 bf 46 72 f0 be da af b0 bd 7d af bd be
       -0.5740535 -0.46962184 -0.08627291 -0.3704795
0000c0 0d 27 fb 3e f3 91 8f 3e 90 9f 39 bf 08 ee 88 be
       0.4905323 0.28041038 -0.725091 -0.26744103
0000d0 7b 2e fd be e4 35 0c 3f 39 b7 43 bf 26 33 90 bf
       -0.49449524 0.5476973 -0.7645145 -1.1265609
0000e0 84 f1 c3 be 39 36 cf be 84 d9 08 3f 76 85 e7 be
       -0.382702 -0.40471056 0.534569 -0.4521901
0000f0 6e 5e 1f 3f 48 c0 f7 3e d6 ed fd 3e ba ce da be
       0.62253463 0.48388886 0.49595517 -0.42735845
000100 16 57 2a bf 8c eb de 3e 3a 65 12 3f b1 d8 36 bf
       -0.6653913 0.43539083 0.5718571 -0.71424395
000110 83 9e 8c bd 0c f5 ae be cb fe 4e bf e0 f0 ec 3e
       -0.06866171 -0.3417133 -0.80857533 0.46277523
000120 16 64 0c 3f d5 d1 1a 3f e6 8f ff 3e e0 c8 bd 3c
       0.5484022 0.6047643 0.49914473 0.023167074
000130 82 2b 48 bd 49 26 4c be 36 f6 a8 bd 18 29 d7 3e
       -0.048869617 -0.1993648 -0.08250086 0.4202354
000140 29 8a 7a bf bc 80 0e 3d 1c 0e 11 3f 23 6f 6b bf
       -0.97867066 0.03479074 0.56662154 -0.91966456
000150 40 22 c2 3e ec 9e 52 bf 60 a9 97 be 40 5c 16 bb
       0.37916756 -0.82273746 -0.2962141 -0.002294317
000160 3d c2 0e 3f ff 35 1b 3f 0f 39 22 3f 45 b8 89 bd
       0.55765134 0.60629267 0.63368315 -0.067246
000170 3d 08 8a bd 8c a1 da 3d ce a7 58 bf 09 1d 8e be
       -0.067398526 0.10675344 -0.8463105 -0.27756527
000180 2d fd 91 bd 20 61 e8 be 83 67 f5 3e 4a a3 fd 3e
       -0.071283676 -0.453866 0.47930536 0.49538642

fc3.bias f4 [2]
000000 8d 9b 94 3e 34 78 7a 3e
       0.29024926 0.24459916
